…
    "print x.max() ,x.min()"
   ]
  },
  {
   "cell_type": "code",
   "execution_count": 4,
   "metadata": {
    "collapsed": false
   },
   "outputs": [
    {
     "name": "stdout",
     "output_type": "stream",
     "text": [
      "____________________________________________________________________________________________________\n",
      "Layer (type)                     Output Shape          Param #     Connected to                     \n",
      "====================================================================================================\n",
      "input_1 (InputLayer)             (None, 1, 28, 28)     0                                            \n",
      "____________________________________________________________________________________________________\n",
      "convolution2d_1 (Convolution2D)  (None, 32, 26, 26)    320         input_1[0][0]                    \n",
      "____________________________________________________________________________________________________\n",
      "convolution2d_2 (Convolution2D)  (None, 16, 24, 24)    4624        convolution2d_1[0][0]            \n",
      "____________________________________________________________________________________________________\n",
      "maxpooling2d_1 (MaxPooling2D)    (None, 16, 12, 12)    0           convolution2d_2[0][0]            \n",
      "____________________________________________________________________________________________________\n",
      "convolution2d_3 (Convolution2D)  (None, 8, 12, 12)     1160        maxpooling2d_1[0][0]             \n",
      "____________________________________________________________________________________________________\n",
      "flatten_1 (Flatten)              (None, 1152)          0           convolution2d_3[0][0]            \n",
      "____________________________________________________________________________________________________\n",
      "dense_1 (Dense)                  (None, 32)            36896       flatten_1[0][0]                  \n",
      "____________________________________________________________________________________________________\n",
      "dense_2 (Dense)                  (None, 800)           26400       dense_1[0][0]                    \n",
      "____________________________________________________________________________________________________\n",
      "reshape_1 (Reshape)              (None, 8, 10, 10)     0           dense_2[0][0]                    \n",
      "____________________________________________________________________________________________________\n",
      "zeropadding2d_1 (ZeroPadding2D)  (None, 8, 12, 12)     0           reshape_1[0][0]                  \n",
      "____________________________________________________________________________________________________\n",
      "convolution2d_4 (Convolution2D)  (None, 16, 12, 12)    1168        zeropadding2d_1[0][0]            \n",
      "____________________________________________________________________________________________________\n",
      "upsampling2d_1 (UpSampling2D)    (None, 16, 24, 24)    0           convolution2d_4[0][0]            \n",
      "____________________________________________________________________________________________________\n",
      "zeropadding2d_2 (ZeroPadding2D)  (None, 16, 26, 26)    0           upsampling2d_1[0][0]             \n",
      "____________________________________________________________________________________________________\n",
      "convolution2d_5 (Convolution2D)  (None, 32, 26, 26)    4640        zeropadding2d_2[0][0]            \n",
      "____________________________________________________________________________________________________\n",
      "zeropadding2d_3 (ZeroPadding2D)  (None, 32, 28, 28)    0           convolution2d_5[0][0]            \n",
      "____________________________________________________________________________________________________\n",
      "convolution2d_6 (Convolution2D)  (None, 1, 28, 28)     289         zeropadding2d_3[0][0]            \n",
      "====================================================================================================\n",
      "Total params: 75497\n",
      "____________________________________________________________________________________________________\n"
     ]
    }
   ],
   "source": [
    "model = Sequential()\n",
    "\n",
    "inp = Input(shape=(1, 28, 28))\n",
…
